models/cnn_model.pt (torch, 520212 bytes, 10 tensors)

network.0.weight f4 [6, 3, 3, 3]
0	0xbe0298e2	-0.12753633
1	0x3e0ee32b	0.13953845
2	0x3db426d6	0.0879647
3	0x3e86cdab	0.26328787
4	0x3eaed813	0.34149227
5	0x3e2d0d1e	0.16899535
6	0x3d9b3eb7	0.07580321
7	0xbd9f73ac	-0.077857345
8	0xbde1f85a	-0.110336974
9	0x3d346152	0.044038124
10	0x3d365476	0.044514142
11	0xbdda1940	-0.10649347
12	0x3e1d938a	0.15388313
13	0xbd3585f0	-0.044317186
14	0xbeb45e8d	-0.35228387
15	0x3c9fd9bb	0.019513002
16	0xbe1f94e6	-0.15584144
17	0xbe4d5152	-0.20050552
18	0x3e1a0fd7	0.15045105
19	0x3d9d9ece	0.07696305
20	0xbd2f22c0	-0.04275775
21	0x3e1f22a6	0.15540561
22	0xbe015b87	-0.12632571
23	0xbe85e624	-0.26152146
24	0x3cdf875e	0.027286228
25	0xbe049c3b	-0.12950222
26	0xbd89a3b3	-0.06720676
27	0x3d1f1e03	0.03884698
28	0x3ea4d40d	0.32193032
29	0x3e73b276	0.23798546
30	0x3cb35c16	0.021894496
31	0xbe638155	-0.22217305
32	0xbe0bda40	-0.13657475
33	0xbd838630	-0.064220786
34	0xbdc850f3	-0.09781065
35	0xbe27da7d	-0.1639194
36	0xbcff3723	-0.03115422
37	0x3eccf806	0.40032977
38	0x3e9d2306	0.30690783
39	0xbda59a80	-0.08086109
40	0xbe708971	-0.2348993
41	0xbe2baf0d	-0.16765995
42	0x3cadb3d6	0.021203917
43	0xbda53b84	-0.08067992
44	0xbdaa9524	-0.083292276
45	0xbd5ce361	-0.053927783
46	0x3dfd0581	0.123545654
47	0x3e2e593d	0.17026229
48	0xbcad5e0a	-0.021163005
49	0xbdbc7780	-0.0920248
50	0xbdeceec4	-0.115689784
51	0x3d29b5e8	0.041433245
52	0xbd2ba3d5	-0.04190429
53	0xbd677f8a	-0.056518115
54	0x3e21b363	0.15791087
55	0x3d30a2b2	0.04312391
56	0x3e2b84e4	0.16749913
57	0xbe7c54c3	-0.24641709
58	0xbe87c590	-0.26517916
59	0x3e081f2d	0.13293143
60	0xbe5ce120	-0.21570253
61	0x3d00f4b4	0.031483367
62	0x3d9cfb33	0.076651
63	0xbda77dca	-0.08178289
64	0xbe97fb5e	-0.29683965
65	0x3db1619c	0.08661196
66	0xbe291245	-0.16510876
67	0xbd97724f	-0.073948495
68	0x3e2e5b5a	0.17027035
69	0xbddd72ab	-0.10812887
70	0x3daf0ab8	0.08546966
71	0x3e97aa85	0.29622284
72	0xbe1e4f84	-0.1546002
73	0xbe3e9f26	-0.18615398
74	0xbd4a0f68	-0.0493311
75	0xbdc3412d	-0.09533916
76	0x3cdd37f9	0.027004229
77	0x3eb43706	0.3519823
78	0xbda8eee9	-0.082486935
79	0x3dbe185e	0.092819914
80	0x3e77ef60	0.24212408
81	0xbd4a364f	-0.0493682
82	0xbebd486f	-0.36969325
83	0xbd4304c9	-0.047611985
84	0x3e04a094	0.1295188
85	0x3e2d6cf0	0.16936088
86	0xbcd3b846	-0.025844704
87	0x3d129b4f	0.035792645
88	0x3e69dcbc	0.2283811
89	0x3e61d9e6	0.22055778
90	0xbdcf2019	-0.10113544
91	0xbe7f3569	-0.24922718
92	0xbd8645f0	-0.06556308
93	0x3e31b688	0.17354786
94	0xbd50eb55	-0.05100568
95	0xbddbce8c	-0.10732755
96	0xbd23e4c9	-0.04001311
97	0x3e22e66e	0.15908214
98	0x3bd0e8b2	0.0063753957
99	0xbe0d3718	-0.13790548
100	0xbe834459	-0.25638083
101	0xbb908337	-0.0044101733
102	0x3dfb861d	0.122814395
103	0x3b4c7a49	0.0031200817
104	0xbc5fb3ec	-0.013653737
105	0xbc4c0fdf	-0.012454956
106	0x3e5c5cb1	0.21519734
107	0x3d4017b9	0.046897624
108	0xbc26282a	-0.010141412
109	0xbd9cc458	-0.07654637
110	0x3cab2cbb	0.020895353
111	0xbd72f46e	-0.059315138
112	0xbe4f27b5	-0.20229991
113	0x3d54dcaf	0.051968273
114	0xbe234be9	-0.15946926
115	0xbea32c2c	-0.31869638
116	0xbd61e6de	-0.055151813
117	0xbd8bf6d4	-0.06834188
118	0xbdd93a96	-0.106068775
119	0xbe087f7e	-0.13329884
120	0x3c88712f	0.016655533
121	0x3d220b62	0.039561637
122	0xbd4677eb	-0.048454206
123	0xbd4eb92b	-0.05046956
124	0xbcfe4a56	-0.031041306
125	0xbe4876e8	-0.19576609
126	0x3e488066	0.1958023
127	0x3d124589	0.035710845
128	0xbe27afb6	-0.16375622
129	0x3ec4d6b3	0.38445053
130	0x3ed0b54b	0.40763316
131	0x3c76b165	0.015056943
132	0x3e7d6afe	0.24747846
133	0x3e888524	0.26664078
134	0xbbc78124	-0.006088393
135	0x3da1ed36	0.079065725
136	0xbe3afb0b	-0.18259828
137	0x3ded4fdc	0.115874976
138	0x3e41f236	0.18940052
139	0xbec818be	-0.39081377
140	0x3e639cd8	0.222278
141	0x3e28f64b	0.16500203
142	0xbe712eba	-0.23552981
143	0x3d331fe9	0.043731604
144	0x3de17a26	0.11009626
145	0xbe200c7e	-0.15629765
146	0x3c770288	0.015076287
147	0x3e5545ba	0.2082738
148	0xbed34e80	-0.41270828
149	0x3e7dde39	0.24791802
150	0x3e84c242	0.25929457
151	0xbe971d33	-0.29514465
152	0x3c2ebad0	0.010664657
153	0xbd099584	-0.033589855
154	0xbda12320	-0.07868028
155	0x3d7578b5	0.05992957
156	0x3e90f8b7	0.28314754
157	0xbeb538c5	-0.35394874
158	0x3df1e8fd	0.11812017
159	0x3dfb5637	0.122723036
160	0xbe5cc79e	-0.21560523
161	0x3dec7b25	0.115469255

network.0.bias f4 [6]
0	0xbba2ff4b	-0.004974281
1	0xbc69c854	-0.014268953
2	0x3c71f2e5	0.014767383
3	0x3c00fc19	0.007872605
4	0x3dba5040	0.09097338
5	0xbcc9d390	-0.024637014

network.3.weight f4 [12, 6, 3, 3]
0	0xbe0b01b6	-0.13574871
1	0xbeba11f5	-0.36341825
2	0x3e07ec6d	0.13273783
3	0xbdf68f00	-0.12038994
4	0x3ea7bf1d	0.32762995
5	0x3e639ed6	0.2222856
6	0xbbc66d95	-0.0060555437
7	0x3e863abc	0.26216686
8	0x3da50641	0.080578335
9	0x3d12b661	0.03581846
10	0xbe516c0c	-0.20451373
11	0x3e4f9b3d	0.20274062
12	0xbe4f94a2	-0.20271543
13	0x3dbc2f46	0.09188704
14	0x3dcdabd7	0.100425415
15	0xbe453936	-0.19260105
16	0xbd9452d4	-0.07242361
17	0xbcf05877	-0.029339058
18	0x3cfb322f	0.030663578
19	0x3e76afed	0.24090548
20	0x3d50e63d	0.051000822
21	0xb90c365f	-0.00013371695
22	0xbe880ce9	-0.2657235
23	0xbedc03f3	-0.42971763
24	0xbda9725c	-0.082737654
25	0xbe602ece	-0.21892855
26	0xbd68088e	-0.056648783
27	0x3da1e24f	0.07904493
28	0x3d7fce4a	0.062452592
29	0xbdc4f871	-0.09617699
30	0x3e9e5c59	0.3092983
31	0xbd95f550	-0.0732218
32	0xbeab520a	-0.33461028
33	0xbeb364f3	-0.35037956
34	0xbee75cb5	-0.45187917
35	0xbe8eac6a	-0.27865916
36	0xbdf810e8	-0.121125996
37	0x3c88b950	0.016689926
38	0x3dd4269b	0.10358926
39	0x3da88a59	0.08229513
40	0x3dc45280	0.09586048
41	0x3d99f2f3	0.07517042
42	0x3d57e14b	0.05270509
43	0xbd33f6f0	-0.04393667
44	0xbdc81601	-0.09769822
45	0xbe5a432e	-0.2131469
46	0xbdf67a43	-0.12035038
47	0xbe521f61	-0.20519783
48	0xbe79a7f3	-0.24380474
49	0xbe830fe2	-0.25598055
50	0x3d400a00	0.046884537
51	0x3e0dd87c	0.13852113
52	0x3e1c7e33	0.15282516
53	0x3d49e123	0.049286973
54	0x3da07368	0.07834512
55	0x3e89535e	0.26821417
56	0x3e6dcdd9	0.23223056
57	0x3d435990	0.047692835
58	0x3e896f95	0.26842943
59	0x3e213d6c	0.15746087
60	0xbde16197	-0.11004942
61	0xbddd3fd0	-0.10803187
62	0xbe7cb44d	-0.24678154
63	0x3cfc24cd	0.030779267
64	0xbba5fc30	-0.0050654635
65	0x3d564921	0.052315835
66	0xbda9262a	-0.08259232
67	0xbc958a67	-0.018254472
68	0x3e7eb882	0.24875072
69	0xbd68ef32	-0.05686874
70	0x3d5107c0	0.05103278
71	0x3da0f1b0	0.07858598
72	0xbe0ce680	-0.13759804
73	0xbeb1641c	-0.3464669
74	0xbdf3e432	-0.11908759
75	0x3d27f52a	0.04100529
76	0x3d92c355	0.07166163
77	0x3dd194f1	0.102334864
78	0x3e26ba3c	0.1628198
79	0x3e102b7c	0.14079088
80	0x3e609d74	0.21935064
81	0xbd30e500	-0.04318714
82	0x3d879e1f	0.06621956
83	0xbce589f7	-0.028019888
84	0x3d649706	0.05580809
85	0x3d07bd3e	0.03313946
86	0xbe163bb2	-0.1467121
87	0xbdb43640	-0.0879941
88	0xbdbb9327	-0.091589265
89	0xbe055956	-0.1302236
90	0x3e8fe895	0.28107134
91	0xbc72f22e	-0.014828248
92	0xbe97dd14	-0.29660857
93	0x3cd1a494	0.025591172
94	0xbeb07f53	-0.3447214
95	0xbe7c2e1e	-0.24626967
96	0x3e61c79a	0.22048798
97	0xbd8dc43c	-0.06922194
98	0x3eb145b3	0.3462349
99	0xbe1fad34	-0.15593415
100	0xbedcdd4f	-0.43137595
101	0xbe982740	-0.29717445
102	0xbdb73921	-0.08946443
103	0xbe821868	-0.25409245
104	0xbe2f09cd	-0.17093582
105	0x3cf343d3	0.029695427
106	0x3d3e852e	0.04651373
107	0x3db3f580	0.0878706
108	0xbd389916	-0.04506787
109	0x3d7e0026	0.06201186
110	0x3e8f2536	0.27958077
111	0xbea8d83f	-0.32977483
112	0xbd20a898	-0.039223284
113	0x3e2ac4ab	0.16676585
114	0xbdd4d3e7	-0.1039198
115	0xbd27e45a	-0.040989257
116	0x3dd48f22	0.10378863
117	0xbcc3e470	-0.023912638
118	0xbe03c13f	-0.12866686
119	0x3ccde059	0.025131391
120	0xbea0c7f4	-0.31402552
121	0xbe9d188c	-0.3068279
122	0xbe07fd79	-0.13280286
123	0xbe7a8757	-0.2446569
124	0xbe116074	-0.1419695
125	0xbe926906	-0.28595752
126	0x3e881c0c	0.26583898
127	0x3d7a2dfb	0.061079007
128	0xbef65ec8	-0.48119187
129	0x3ea64874	0.32477152
130	0xbc076e0b	-0.008265982
131	0xbf0d81ef	-0.5527639
132	0x3e6cd8e7	0.23129617
133	0x3e5497a2	0.20760968
134	0xbecbb10d	-0.39783517
135	0x3d758888	0.05994466
136	0x3d8ed7d6	0.06974761
137	0xbb5b100b	-0.003342631
138	0x3dfe1cfb	0.12407871
139	0xbe713d27	-0.23558484
140	0xbd3f72ce	-0.046740346
141	0x3c9d3812	0.019191775
142	0xbeaf3544	-0.34220326
143	0xbd5be558	-0.053685516
144	0xbd1f3d01	-0.038876537
145	0x3dec5b30	0.1154083
146	0x3d807e78	0.06274122
147	0xbe12dc0c	-0.14341754
148	0x3c3c988c	0.011510979
149	0xbbbd9865	-0.005785989
150	0xbd3ae3f5	-0.045627553
151	0x3ddef948	0.108873904
152	0xbe121df1	-0.14269234
153	0xbdf3bff6	-0.11901848
154	0xbe35434d	-0.17701454
155	0xbca17929	-0.019711094
156	0xbe51e4cb	-0.20497434
157	0xbf07831a	-0.5293442
158	0xbddf9ceb	-0.109186016
159	0xbe51383c	-0.20431608
160	0xbd3945a2	-0.045232423
161	0xbe16ef77	-0.14739786
162	0x3e27cd60	0.16386938
163	0xbd78fa03	-0.060785305
164	0xbcf901da	-0.03039639
165	0xbe5d20c2	-0.21594527
166	0xbecd6bdf	-0.40121362
167	0xbe87e54b	-0.26542124
168	0x3da044a5	0.07825593
169	0xbe085b1b	-0.13316004
170	0xbe7220bc	-0.236453
171	0x3c908d26	0.01764543
172	0xbcf49cd7	-0.029859943
173	0x3c7b3018	0.015331291
174	0x3d588a95	0.052866537
175	0x3e20367f	0.15645789
176	0xbcaa056f	-0.020754544
177	0x3db47256	0.0881087
178	0xbd52e5be	-0.05148863
179	0x3e0818d7	0.13290726
180	0xbc895c35	-0.0167676
181	0x3d3589bf	0.044320818
182	0x3daf45d5	0.08558241
183	0x3d17474f	0.03693324
184	0x3d281ac3	0.041041147
185	0x3c58865d	0.013215628
186	0xbe2aa48a	-0.16664329
187	0xbd8aa48a	-0.067696646
188	0x3c5685cb	0.013093422
189	0xbca3834a	-0.019960064
190	0xbd51f83b	-0.05126212
191	0x3d60510a	0.054764785
192	0xbe035513	-0.12825422
193	0xbe1c0849	-0.15237536
194	0xbddcd76b	-0.10783275
195	0x3dbb9b10	0.09160435
196	0xbd063465	-0.03276481
197	0xbdbeaaa9	-0.093098946
198	0xbe90e3d0	-0.28298807
199	0xbd532787	-0.051551368
200	0x3beb0bf7	0.007173057
201	0xbdfa9f87	-0.12237459
202	0x3ea0acd7	0.31381866
203	0x3ecc75cf	0.3993363
204	0xbeacbe04	-0.3373872
205	0x3e62bbcf	0.22141956
206	0x3ea8a96b	0.32941756
207	0xbde2cd76	-0.11074345
208	0xbc8e5c97	-0.017378135
209	0xbd8fec47	-0.07027488
210	0x3d0cbab3	0.034357738
211	0xbdb27f31	-0.08715666
212	0x3d6cb372	0.05778832
213	0x3c3f5961	0.011679024
214	0x3da74080	0.08166599
215	0x3c2c49eb	0.01051567
216	0x3e344b5b	0.17606871
217	0x3e017dba	0.12645617
218	0x3e321766	0.17391738
219	0xbb52f63f	-0.003219023
220	0xbe78ec6b	-0.24308936
221	0xbe8310be	-0.2559871
222	0xbe7604b6	-0.24025235
223	0xbdf5b0df	-0.11996626
224	0xbc7ee48f	-0.015557422
225	0x3d41e02f	0.04733294
226	0x3ddd478b	0.10804661
227	0x3c3d7b48	0.011565037
228	0x3e42919b	0.19000857
229	0x3dc38427	0.095466904
230	0xbdbafafb	-0.09129902
231	0xbe0e051b	-0.13869135
232	0xbdafd640	-0.08585787
233	0x3e0bfe6f	0.13671277
234	0x3e002520	0.12514162
235	0x3e3fdb00	0.18735886
236	0x3e6d00cd	0.23144837
237	0x3dd9c492	0.10633196
238	0xbc9a20fa	-0.018814553
239	0x3dc8d8a8	0.09806949
240	0x3bbb36c5	0.005713316
241	0x3daef36f	0.08542525
242	0x3ecf5f68	0.40502477
243	0xbc250231	-0.010071323
244	0xbde1591d	-0.11003325
245	0xbce56708	-0.02800323
246	0x3c8e0530	0.017336458
247	0x3dce7f16	0.100828335
248	0x3da0d31c	0.07852766
249	0xbbf2ad1f	-0.0074058915
250	0xbd0abb0c	-0.033869788
251	0x3e6e51c2	0.23273376
252	0x3e1de311	0.1541865
253	0x3cd2b0cf	0.025719075
254	0xbc29002c	-0.010314982
255	0x3d281c89	0.04104284

network.3.bias f4 [12]
0	0xbc5abd06	-0.013350731
1	0xbd95d442	-0.073158756
2	0x3da7b23d	0.08188293
3	0x3c051646	0.008122986
4	0xbcf6598e	-0.030072
5	0x3e65d8d2	0.22445992
6	0xbc50b182	-0.012737634
7	0xbd666833	-0.056251716
8	0xbd4514aa	-0.04811541
9	0xbd1da857	-0.03849062
10	0x3dd86175	0.105654635
11	0xbd65e4c7	-0.056126382

network.8.weight f4 [150, 768]
0	0xbc4cd492	-0.012501853
1	0xbb55336b	-0.0032531868
2	0x3dfef743	0.12449505
3	0xbd0a5d21	-0.03378022
4	0xbe5323ef	-0.20619176
5	0xbe73af0e	-0.23797247
6	0xbe96cc7d	-0.29452887
7	0xbcde5c4d	-0.027143622
8	0xbec21e53	-0.3791376
9	0x3df734fc	0.12070653
10	0x3dc699ef	0.09697329
11	0x3e27497f	0.1633663
12	0xbc00078e	-0.007814301
13	0xbe084928	-0.13309157
14	0xbe0f579a	-0.13998261
15	0x3d3d76dd	0.046255935
16	0xbeac5f54	-0.3366648
17	0x3eb683ab	0.3564733
18	0x3d1dfff7	0.038574185
19	0xbdb1f606	-0.08689503
20	0x3ddea882	0.10871984
21	0x3d3e6dc3	0.046491396
22	0xbe3833f1	-0.17988564
23	0x3e72f2e5	0.2372547
24	0xbdcc9d83	-0.099909805
25	0x3d378e08	0.044813186
26	0x3e49f9bf	0.19724177
27	0x3d0778b3	0.033074092
28	0x3e9c1433	0.3048416
29	0x3cf29953	0.029614126
30	0x3e8467a7	0.2586033
31	0x3ce6c2fa	0.028169144
32	0x3df5903e	0.11990403
33	0x3e07570b	0.13216798
34	0xbde4689a	-0.11152764
35	0x3df6062c	0.12012896
36	0xbd839d6c	-0.0642651
37	0x3e3bda79	0.1834506
38	0xbd9908dd	-0.07472394
39	0x3bbacb9e	0.0057005426
40	0x3db20a3a	0.08693357
41	0x3e944cf6	0.28964967
42	0x3e62820f	0.22119926
43	0x3dee95c3	0.116496585
44	0xbc911a96	-0.017712872
45	0x3db9b969	0.09068567
46	0x3dc0cb99	0.09413833
47	0xbdb7421c	-0.08948156
48	0x3de6af4e	0.112639055
49	0xbe173abb	-0.14768498
50	0xbe400d36	-0.1875504
51	0x3dff0be4	0.1245344
52	0xbe0c3b5c	-0.13694519
53	0x3d5f3ed6	0.054503284
54	0xbbe7686b	-0.007062008
55	0xbc6b8e5c	-0.014377203
56	0x3dd8fc3d	0.10594986
57	0x3e32b380	0.17451286
58	0xbd34f7df	-0.0441817
59	0x3dbefa86	0.09325127
60	0x3cb77a6c	0.022397242
61	0x3ead84c2	0.3389035
62	0xbbc8c369	-0.0061268103
63	0xbdcf510e	-0.10122882
64	0xbe0edb4d	-0.13950844
65	0xbdfc2734	-0.12312165
66	0xbdedaa8e	-0.11604796
67	0xbe02ef81	-0.12786676
68	0xbe21a92a	-0.15787187
69	0xbdafbb30	-0.08580625
70	0x3da25033	0.07925453
71	0x3de30ed4	0.110868126
72	0xbe88575a	-0.26629144
73	0xbe391c3a	-0.18077174
74	0xbdee3e0d	-0.11632929
75	0x3d0ecc2d	0.034862686
76	0x3cf9fb50	0.030515343
77	0x3d8c890d	0.06862078
78	0xbe8a8cc8	-0.27060533
79	0xbb13a584	-0.0022529075
80	0xbe2051a1	-0.15656139
81	0x3d459b3c	0.048243746
82	0x3ba54bf2	0.005044454
83	0xbc1b3110	-0.009472147
84	0x3ddae9c6	0.1068912
85	0x3e010b38	0.12601936
86	0xbd6bb288	-0.057543308
87	0xbc8d7178	-0.01726602
88	0xbe70d425	-0.23518427
89	0x3d8099cb	0.06279334
90	0xbd222018	-0.03958139
91	0x3e0d3fb6	0.13793835
92	0x3e0b1a71	0.13584305
93	0xbc059e14	-0.008155365
94	0x3dcda6c5	0.100415744
95	0x3e69c4d2	0.22828987
96	0x3d800eea	0.06252845
97	0x3e9f6e27	0.31138727
98	0x3e92bcaf	0.2865958
99	0x3dfd28c1	0.12361289
100	0x3d55cef9	0.052199338
101	0x3d29f321	0.04149163
102	0x3ddc2234	0.10748711
103	0x3d11cfef	0.03559869
104	0x3dfcbfe9	0.123412915
105	0x3ea0be5a	0.31395227
106	0x3e7e2bcb	0.24821393
107	0x3e10603c	0.1409921
108	0x3ea2505e	0.3170194
109	0x3eaa3f6e	0.33251518
110	0x3ebf31de	0.37342733
111	0x3d3c1f1b	0.045928102
112	0x3e0020d3	0.12512521
113	0x3ea3d02e	0.31994766
114	0x3e8c71ec	0.27430665
115	0x3ec88a8c	0.39168203
116	0x3e716d99	0.23576964
117	0x3e8fd94f	0.2809548
118	0x3e419ed7	0.18908249
119	0x3e1cce0d	0.15312977
120	0xbbdda7bd	-0.0067643807
121	0x3e2e5985	0.17026336
122	0x3e67e7e0	0.22647047
123	0x3e9a76e4	0.3016883
124	0x3e0cf1e5	0.1376415
125	0x3e2f95c5	0.17146976
126	0xbe502eb1	-0.20330311
127	0xbe05895f	-0.13040684
128	0x3deb724a	0.11496408
129	0x3e911209	0.28334072
130	0x3ea6fdc8	0.32615495
131	0x3e31723b	0.17328732
132	0x3ea4f2f1	0.322166
133	0x3e4b2f18	0.19842184
134	0x3d3bfe2f	0.045896705
135	0x3e8d54fd	0.27603903
136	0x3e33fc99	0.17576827
137	0xbe255341	-0.1614504
138	0x3de0df29	0.109800644
139	0x3c1dac17	0.009623549
140	0xbe8ef629	-0.2792218
141	0x3dd6261f	0.1045649
142	0xbe4c3a5c	-0.19944137
143	0x3d99bad3	0.07506337
144	0x3d85c6e4	0.06532076
145	0x3cf8a608	0.030352607
146	0x3d0c01d9	0.03418145
147	0xbdaceeef	-0.084440105
148	0x3c055681	0.0081383
149	0x3d4eb15d	0.050462116
150	0xbe17c58b	-0.1482145
151	0xbdedce1c	-0.11611578
152	0x3e3e5dc8	0.18590462
153	0x3db3db40	0.08782053
154	0x3d9cdcb7	0.076592855
155	0x3e8fe06f	0.28100917
156	0x3dc6e8bc	0.09712359
157	0xbe89ec5f	-0.2693815
158	0xbc3ba556	-0.011452993
159	0xbe09eb2b	-0.13468616
160	0x3d14ac53	0.036297154
161	0x3e7e9175	0.24860175
162	0x3e82031c	0.25392997
163	0x3df892bf	0.121373646
164	0xbd82eb3c	-0.06392524
165	0x3c43b60f	0.011945262
166	0xbc95862c	-0.018252455
167	0xbdd7336a	-0.10507853
168	0xbda56099	-0.08075065
169	0x3de672ec	0.11252388
170	0x3dab2cf7	0.08358186
171	0xbe39ace4	-0.18132359
172	0xbdad0281	-0.08447743
173	0xbe4aa83f	-0.19790743
174	0x3d92a682	0.07160665
175	0xbdcef8bb	-0.10106035
176	0xbccdf49f	-0.025141058
177	0x3d180afb	0.037119847
178	0x3daa36c6	0.083112285
179	0xbd012b50	-0.031535447
180	0x3e10ff96	0.14159998
181	0x3d458a0f	0.048227366
182	0xbc03e2c3	-0.00804967
183	0xbe2fa445	-0.17152508
184	0xbdf8b4b6	-0.12143843
185	0x3e8311a6	0.25599402
186	0xbd5b5d29	-0.05355564
187	0x3c3936c2	0.011304559
188	0x3e6523be	0.22376916
189	0x3e26374d	0.16232033
190	0x3de91638	0.11381191
191	0x3cd197fb	0.025585165
192	0x3e195e0f	0.14977287
193	0x3d73fb9e	0.059566133
194	0xbdaf0bed	-0.085471965
195	0xbdb92075	-0.09039394
196	0x3db97db7	0.09057181
197	0x3c16d683	0.009206417
198	0x3d3a9ffc	0.04556273
199	0x3db4698c	0.08809194
200	0x3e0ec820	0.13943529
201	0x3d9a8a1e	0.07545875
202	0xbbc68d74	-0.006059343
203	0xbe5273a2	-0.20551923
204	0x3ac6ceb2	0.0015167801
205	0x3d1fe6dd	0.039038528
206	0x3e18f258	0.14936197
207	0x3e3ca01e	0.18420455
208	0x3e029908	0.1275369
209	0xbe838756	-0.2568919
210	0xbe019bb3	-0.12657051
211	0xbd98ba5d	-0.07457421
212	0x3d2a87fa	0.041633584
213	0xbdaaed49	-0.0834604
214	0xbdd6bc25	-0.104851045
215	0x3df910a7	0.12161379
216	0x3e1d7b9f	0.15379189
217	0xbec5dee0	-0.38646603
218	0xbea83cc3	-0.32858858
219	0xbef286b3	-0.47368392
220	0xbf004ea8	-0.5012002
221	0xbe22720c	-0.15863818
222	0xbd97c09f	-0.074097864
223	0x3e1b656d	0.1517541
224	0x3d8d87ff	0.06910705
225	0xbeb29b30	-0.34884024
226	0xbf00cf6f	-0.5031652
227	0xbe92c896	-0.2866866
228	0xbf10cd05	-0.56562835
229	0xbf09b258	-0.53787756
230	0xbcd58161	-0.02606267
231	0x3e3f4484	0.1867848
232	0x3dbc9633	0.09208336
233	0xbea2281c	-0.31671226
234	0xbf154245	-0.58304244
235	0xbf1e470a	-0.61827147
236	0xbf241d9f	-0.641077
237	0xbe715f9c	-0.23571628
238	0x3e0d31b7	0.13788496
239	0x3e495e67	0.19664918
240	0x3dfe5771	0.12419022
241	0xbe46efbe	-0.19427392
242	0xbe69f514	-0.22847396
243	0xbc3eb935	-0.0116408365
244	0xbd2ab571	-0.041676942
245	0x3e0bd388	0.13654912
246	0x3e892d32	0.26792294
247	0x3eb71af8	0.35762763
248	0x3edeb54e	0.434977
249	0x3e63f234	0.22260362
250	0x3de88f36	0.1135544
251	0x3ed21893	0.41034374
252	0x3ead83dc	0.33889663
253	0x3dda2fb7	0.10653632
254	0x3ec175af	0.37785098
255	0x3ee3efc6	0.4451887

network.8.bias f4 [150]
0	0xbd367731	-0.044547264
1	0x3d8f102e	0.06985508
2	0xbed76607	-0.42070028
3	0xbd029464	-0.031879798
4	0x3df0daaa	0.11760457
5	0x3e33f6fb	0.17574684
6	0xbc6eb83c	-0.014570292
7	0x3ee33276	0.44374436
8	0x3df9fd9e	0.12206577
9	0x3efcdd4d	0.4938759
10	0xbd024197	-0.031800833
11	0x3e2104f0	0.1572454
12	0xbcae362d	-0.021266067
13	0xbe5e83d3	-0.21729974
14	0xbcd83f77	-0.02639745
15	0x3cac0c0d	0.02100184
16	0xbbdc3919	-0.0067206738
17	0x3d538b3c	0.051646456
18	0x3b6ddaa9	0.0036293662
19	0x3df5d909	0.12004287
20	0x3c932ac4	0.017964728
21	0xbcf2c48d	-0.029634738
22	0x3ef2aa48	0.4739554
23	0xbc85227d	-0.016251797
24	0xbc775340	-0.015095532
25	0xbc67f2a9	-0.014156976
26	0x3b7d2816	0.003862863
27	0xbc2de90a	-0.010614643
28	0xbc9e8ebb	-0.019355169
29	0xbcc3d571	-0.023905488
30	0x3bed3db9	0.007240024
31	0x3bd78d6f	0.0065781395
32	0xbcf8e62a	-0.030383188
33	0x3e3afcfb	0.18260567
34	0xbd18bc92	-0.03728921
35	0x3e1ec97b	0.15506546
36	0xbc938f68	-0.018012717
37	0x3e950970	0.29108763
38	0xbd16a8f5	-0.036782224
39	0x3e8cb944	0.27485096
40	0xbd86140d	-0.06546793
41	0x3e99b497	0.30020592
42	0xbd1f5dc1	-0.03890777
43	0x3f0b9189	0.54518944
44	0xbca12e2e	-0.01967534
45	0x3e304f4e	0.17217752
46	0x3dc617dd	0.0967252
47	0xbd24f0d1	-0.040268723
48	0x3e3aa796	0.18227991
49	0xbced6912	-0.028980765
50	0x3f469363	0.77568644
51	0xbce27751	-0.027644785
52	0xbdbdbf14	-0.09264961
53	0xbcee1bb3	-0.029065942
54	0xbcc49fe1	-0.024002017
55	0xbd55bbe7	-0.05218115
56	0xbcddebe9	-0.02709003
57	0x3e1e4917	0.15457569
58	0xbd0dc540	-0.03461194
59	0xbc1126d7	-0.008859358
60	0xbf856b89	-1.0423442
61	0xbc840da4	-0.016119786
62	0xbb8d862e	-0.004318974
63	0x3e4e837e	0.20167348
64	0xbd066c57	-0.032818165
65	0xbdb619a8	-0.08891612
66	0xbc94f210	-0.01818183
67	0xbe0d77f8	-0.13815296
68	0xbc12c21e	-0.008957414
69	0xbd0fa79e	-0.03507196
70	0xbc943858	-0.018093273
71	0xbd6368eb	-0.05551998
72	0x3eab11fa	0.33412153
73	0xbced5277	-0.028969986
74	0x3c23534d	0.009968591
75	0xbca37333	-0.019952392
76	0xbcdc5cf8	-0.0268998
77	0xbc8f5302	-0.017495636
78	0xbeae0b7e	-0.33993143
79	0x3da46219	0.08026523
80	0x3e1d3ad7	0.15354477
81	0x3f10d217	0.5657057
82	0x3e97e28d	0.29665032
83	0xbd27c0dd	-0.040955413
84	0x3dcbec81	0.09957219
85	0x3f8b583a	1.08863
86	0x3f7b383a	0.9813267
87	0x3e75a303	0.23987965
88	0x3e877317	0.26454994
89	0xbc2c0f4f	-0.010501697
90	0x3ec0853b	0.37601647
91	0x3edb606a	0.42846996
92	0xbe54309d	-0.2072167
93	0x3ee4affc	0.44665515
94	0x3d8850e4	0.06656054
95	0xbccffb43	-0.025388366
96	0x3eaa8ab2	0.3330894
97	0xbca4bd54	-0.02010981
98	0x3ebaad75	0.36460462
99	0x3de2d3d3	0.110755585
100	0x3d831d70	0.06402099
101	0xbc8302d2	-0.015992556
102	0x3c00776e	0.007840974
103	0x3eedaad3	0.4641939
104	0x3f62a221	0.8852864
105	0xbec47409	-0.38369778
106	0xbc06415f	-0.008194297
107	0xbd0eeb42	-0.034892328
108	0x3c83533f	0.016030906
109	0xbcb297f7	-0.021800978
110	0x3e87afc1	0.26501277
111	0xbc389902	-0.011266949
112	0xbc88fdab	-0.01672252
113	0xbe410f4b	-0.1885349
114	0xbe939bb6	-0.28829736
115	0xbce0aa58	-0.027424976
116	0x3f054553	0.52058905
117	0x3f20b445	0.6277507
118	0x3b362d19	0.0027797876
119	0xbc9d033f	-0.019166587
120	0xb87c29d8	-6.0120452e-05
121	0xbd1f0067	-0.038818743
122	0xbaf93b67	-0.0019014896
123	0xbc887913	-0.016659295
124	0x3f0a57e2	0.5404035
125	0x3f7c3eb2	0.98533165
126	0x3e884418	0.2661445
127	0x3f550db6	0.83224046
128	0x3dd4249d	0.10358546
129	0x3ef6f7a0	0.48235798
130	0xbc8eb824	-0.01742179
131	0x3eb64c05	0.35604873
132	0xbcc8915e	-0.024483379
133	0xbd0121d6	-0.03152641
134	0x3b95bedb	0.004569871
135	0xbc7feb9e	-0.01562014
136	0xbcb55b72	-0.022138331
137	0xbcc500ed	-0.024048293
138	0x3f08baaa	0.53409827
139	0xbee64dfc	-0.44981372
140	0xbd1d9199	-0.03846893
141	0xbc438f54	-0.011936028
142	0x3ee80046	0.4531271
143	0xbbbc42f5	-0.0057452866
144	0xbea2d420	-0.31802464
145	0xbc6ea548	-0.014565773
146	0xbc50b9f3	-0.012739646
147	0x3e306487	0.17225848
148	0x3e100663	0.14064936
149	0x3b61ae4b	0.0034436162

network.10.weight f4 [80, 150]
0	0xbc9f2560	-0.019427001
1	0xbe5653ef	-0.20930456
2	0x3d1da639	0.0384886
3	0x3cf70bae	0.030156936
4	0x3e3620e5	0.17785986
5	0xbe51685a	-0.20449963
6	0xbcf39bcd	-0.029737378
7	0x3e933351	0.2875009
8	0xbe5098e9	-0.2037083
9	0x3dda057b	0.106455766
10	0x3b92a1de	0.0044748625
11	0xbe990592	-0.29887062
12	0xbc7ca67e	-0.015420554
13	0xbe4492fa	-0.19196692
14	0x3c34c0d8	0.011032306
15	0xbd04281f	-0.032264825
16	0xbc7d824e	-0.015472962
17	0x3de68e74	0.112576395
18	0xbcdfdebd	-0.02732789
19	0xbdf8bdb1	-0.12145556
20	0x3e69201f	0.2276616
21	0x3d126ba5	0.03574719
22	0xbea7d178	-0.32777
23	0x3c2c73dc	0.01052567
24	0x3ccfa430	0.025346845
25	0xbcbd95a7	-0.023142649
26	0x3d1def77	0.03855845
27	0xbc2d2c0b	-0.010569583
28	0xbc1b2139	-0.00946837
29	0x3d462138	0.048371524
30	0xbb880ced	-0.0041519315
31	0x3dabe417	0.08393114
32	0x3d09b5eb	0.033620756
33	0xbebd4e81	-0.36973956
34	0xbd87bdfa	-0.06628032
35	0xbdcafb7c	-0.09911248
36	0x3c211483	0.0098315505
37	0xbec11e12	-0.37718254
38	0x3d0abbf3	0.03387065
39	0x3ce33540	0.027735353
40	0xbd9c6be9	-0.0763777
41	0xbe22f954	-0.15915424
42	0xbb6b895a	-0.0035940022
43	0xbe1769b9	-0.14786424
44	0xbc98b862	-0.018642608
45	0x3d89e3c3	0.06732895
46	0xbeef46b0	-0.46733618
47	0x3b8aa07f	0.0042305584
48	0xbe4f8f3d	-0.20269485
49	0x3c18a4fb	0.009316678
50	0x3e7400f1	0.23828484
51	0x3d5f4e3d	0.054517973
52	0x3dee68f2	0.116411105
53	0xbc63069e	-0.013856558
54	0xbcaf36ed	-0.021388495
55	0xbcfedc5b	-0.031110933
56	0xbca64dbd	-0.02030074
57	0xbe0e77d2	-0.13912895
58	0xbdc3cc3e	-0.095604405
59	0xb9adc0d3	-0.00033140797
60	0xbdec59c8	-0.11540562
61	0xbcc0c973	-0.023533558
62	0x3bc8e6aa	0.006131013
63	0x3cc4af2a	0.024009306
64	0x3d005507	0.03133109
65	0x3e181d6b	0.14854972
66	0xbc9278e2	-0.017879907
67	0x3e07c4bf	0.13258646
68	0xbbe65219	-0.00702883
69	0xbd079f0f	-0.033110674
70	0xbc6a2391	-0.014290706
71	0xbd22f281	-0.03978205
72	0xbe4a261b	-0.19741099
73	0x3bf4b4d1	0.007467844
74	0x3cbf04f4	0.023317792
75	0xbc158094	-0.009124894
76	0xbd46aa2e	-0.04850214
77	0xbb976337	-0.0046199816
78	0xbda766e2	-0.0817392
79	0x3e0c1b5f	0.13682316
80	0x3bba717b	0.0056897975
81	0xbda5e32c	-0.0809997
82	0xbd413a41	-0.047174696
83	0xbd41065e	-0.047125213
84	0xbe8f6251	-0.28004697
85	0xbd937f9f	-0.07202076
86	0x3e77db04	0.24204642
87	0x3ea2361a	0.316819
88	0xbe598f5b	-0.21246092
89	0xbd62872f	-0.055304702
90	0x3dbbef28	0.09176475
91	0x3ccb5341	0.024819972
92	0xbe344ba3	-0.17606978
93	0xbd46a897	-0.048500624
94	0x3de5c35f	0.11218905
95	0xbac4cf55	-0.0015015403
96	0x3df4c040	0.11950731
97	0xbd01a02a	-0.031646885
98	0x3e20c613	0.1570056
99	0xbe83a182	-0.25709158
100	0xbe2f56f9	-0.17123021
101	0xbd3f676a	-0.046729483
102	0xbd34db2d	-0.044154335
103	0x3e915153	0.28382358
104	0x3eba1d79	0.3635061
105	0x3cb0aff9	0.021568285
106	0x3e37067c	0.17873567
107	0xbd2d9a2e	-0.042383365
108	0x3c8a140c	0.016855262
109	0xbd50e5f0	-0.051000535
110	0x3df6dbb9	0.120536275
111	0x3d736b4f	0.05942851
112	0xbbe8d334	-0.0071052555
113	0xbe9269b6	-0.28596276
114	0xbe7481a5	-0.2387758
115	0xbbd5b7a1	-0.0065221344
116	0x3e46d895	0.19418557
117	0x3d31bee0	0.043394923
118	0x3d30f9c9	0.043206964
119	0x3deaa0b5	0.11456434
120	0x3d042fc6	0.032272123
121	0xbcb490e7	-0.022041751
122	0xbc688a6b	-0.014193158
123	0x3b8254b9	0.003977385
124	0xbe276776	-0.16348061
125	0x3d03e6c0	0.032202482
126	0xbe44b60e	-0.19210073
127	0xbe19ed11	-0.1503184
128	0xbd6ddfc7	-0.05807474
129	0x3e250913	0.16116743
130	0x3bc01c22	0.0058627287
131	0x3c7794f2	0.015111195
132	0x3bc32ec2	0.0059565017
133	0x3cd4968f	0.025950698
134	0x3c7f7da6	0.015593922
135	0x3c9183d8	0.017763063
136	0x3c63890a	0.013887653
137	0x3d4943ea	0.049137034
138	0x3d9bb024	0.076019555
139	0x3e52e423	0.2059484
140	0x3cb5e947	0.022205962
141	0xbc8b14ba	-0.016977657
142	0x3e84a0d7	0.2590396
143	0xbe36b44b	-0.17842214
144	0xbcf07aaa	-0.029355366
145	0xbb8525e3	-0.0040633543
146	0xbc01c63c	-0.007920798
147	0x3e0ade92	0.13561466
148	0x3c920c01	0.01782799
149	0xbcefc444	-0.029268391
150	0xbe086ac1	-0.13321973
151	0x3cb181f7	0.021668417
152	0xbe3602df	-0.17774533
153	0x3cc0b5aa	0.023524124
154	0x3e2fbb2d	0.17161246
155	0x3e0e2033	0.1387947
156	0x3b1d0227	0.0023957582
157	0xbe0853a4	-0.13313156
158	0x3cd9df0b	0.026595613
159	0x3d52bbdf	0.0514487
160	0xbd26576f	-0.040610727
161	0x3e5d62e5	0.21619757
162	0x3c1dac15	0.009623547
163	0xbea6a57d	-0.32548133
164	0x3c238e25	0.00998262
165	0x3cfbf4ad	0.030756319
166	0x3d40aae3	0.04703797
167	0x3e4db754	0.20089465
168	0xbd1cd29f	-0.0382868
169	0x3d42188c	0.04738669
170	0x3df9474f	0.12171804
171	0xba68886d	-0.00088704267
172	0x3e511ee8	0.20421946
173	0x3cdb124b	0.026742121
174	0xbd33375f	-0.043753978
175	0xbd05e52f	-0.03268927
176	0xbd02523b	-0.031816702
177	0x3c67bbe4	0.014143918
178	0x3cab42f7	0.020905955
179	0x3bbc2d7f	0.0057427282
180	0x3c2814c3	0.010258856
181	0xbcb5156c	-0.022104941
182	0xba6e0d90	-0.00090810005
183	0x3e4e3c72	0.20140246
184	0xbd2379ed	-0.0399112
185	0xbe204458	-0.15651071
186	0x3af1ba90	0.0018442441
187	0xbdfc8e8f	-0.123318784
188	0xbaf3f328	-0.0018611895
189	0xbdd8f9ea	-0.10594542
190	0x3d603702	0.05473996
191	0x3e395fb3	0.18102913
192	0x3d597d19	0.053097818
193	0x3e23af6a	0.15984884
194	0xbd330cc1	-0.043713335
195	0xbcf1aba4	-0.02950079
196	0x3c11ccfe	0.008898972
197	0xbd73aff8	-0.05949399
198	0xbe4dc145	-0.20093258
199	0x3caf4220	0.021393836
200	0xbe0070a4	-0.12542969
201	0xbd43b41c	-0.047779188
202	0xbe78b2be	-0.24286935
203	0xbbb00a0c	-0.0053722914
204	0x3c5d8881	0.013521315
205	0xbd9c5aeb	-0.07634529
206	0xbd542d4c	-0.05180101
207	0x3d0e866f	0.034796175
208	0x3c2ab077	0.010418049
209	0xbbdf7d19	-0.0068203327
210	0xbe6447c3	-0.22293
211	0xbc2d8aa2	-0.010592135
212	0xbd0ca97c	-0.03434132
213	0x3e8c7478	0.2743261
214	0xbbf6d707	-0.0075329575
215	0xbd575a57	-0.05257639
216	0xbd24b859	-0.04021487
217	0xbe420b69	-0.18949665
218	0xbd359a17	-0.044336405
219	0xbd4352c7	-0.047686365
220	0x3b42c058	0.0029716697
221	0x3d438a8f	0.04773956
222	0x3da3a178	0.07989782
223	0x3c6fc503	0.014634374
224	0xbc83b2d6	-0.016076487
225	0x3c7d4fbf	0.0154609075
226	0x3b419a92	0.0029541594
227	0x3a983b4e	0.0011614354
228	0xbd804026	-0.06262235
229	0xbd0c02ba	-0.034182288
230	0xbe30f438	-0.17280662
231	0x3d946a1a	0.072468
232	0xbca49f5d	-0.020095522
233	0x3d1a75f8	0.03771016
234	0x3db23028	0.08700591
235	0xbd928404	-0.07154086
236	0x3d6f83f9	0.05847547
237	0x3cebeb79	0.028798806
238	0xbe88a08a	-0.26684982
239	0xbc371d35	-0.011176397
240	0xbdee3956	-0.1163203
241	0xbe3d5b65	-0.18491895
242	0xbe29dc92	-0.16588047
243	0xbdaef735	-0.08543245
244	0x3e1f25c4	0.1554175
245	0xbc8e2e93	-0.017356193
246	0xbd228601	-0.039678577
247	0xbd46cd15	-0.048535425
248	0x3e02b594	0.12764579
249	0x3e45660d	0.1927721
250	0xbe7c4ae9	-0.24637951
251	0x3cc4abf9	0.024007784
252	0x3d03682a	0.03208176
253	0xbccdc503	-0.025118357
254	0xbe89b668	-0.26896977
255	0xbe3bff5d	-0.18359132

network.10.bias f4 [80]
0	0x3f17d844	0.5931437
1	0x3f267573	0.65022963
2	0x3f1bb28f	0.60819334
3	0x3f19ffa4	0.601557
4	0x3e65e025	0.22448786
5	0x3f396c75	0.7243112
6	0x3ec12866	0.37726134
7	0x3f608739	0.87706333
8	0x3f240e42	0.64084256
9	0x3eca6975	0.39533582
10	0x3e43962d	0.19100256
11	0x3e831afc	0.25606525
12	0xbd8dfe15	-0.06933228
13	0x3e84a0f5	0.2590405
14	0x3e99438d	0.2993435
15	0x3ec37975	0.38178602
16	0x3ec9de33	0.39427337
17	0x3ed55c3c	0.41671932
18	0x3ed081e0	0.40724087
19	0x3f12ce0f	0.5734567
20	0xbdb25aef	-0.087087505
21	0xbd336a34	-0.043802455
22	0x3f0d6f05	0.5524753
23	0xbe2fd239	-0.17170037
24	0x3e930a85	0.28718963
25	0x3f0811b2	0.53152
26	0xbdf98997	-0.12184446
27	0x3f086262	0.5327512
28	0x3ed48eba	0.41515142
29	0x3edc19b4	0.4298836
30	0xbdda6b29	-0.106649704
31	0x3f1d0958	0.6134238
32	0x3f166dae	0.5876111
33	0xbde31f8a	-0.1109
34	0x3ebab7f2	0.36468464
35	0x3d7e3768	0.06206456
36	0xbc325f86	-0.010887032
37	0x3dd044e1	0.101693876
38	0x3f48d99e	0.7845706
39	0x3ef311ae	0.47474426
40	0x3ed33103	0.4124833
41	0x3d0aa0e2	0.033844836
42	0x3d8e7fb8	0.06957954
43	0x3f0f564c	0.55991054
44	0x3defb0c0	0.11703634
45	0x3f2db5bb	0.67855424
46	0x3f34949d	0.70539266
47	0x3f0a59fe	0.5404357
48	0x3ef78b8d	0.48348656
49	0x3dc2f4a0	0.09519315
50	0xbce8b17d	-0.028404946
51	0xbd94d3c7	-0.07266956
52	0x3ed86258	0.4226253
53	0x3ec2cb1b	0.38045582
54	0x3ef737ae	0.48284668
55	0x3e9d6a65	0.30745235
56	0xbdca7156	-0.09884898
57	0x3e91f6b3	0.2850853
58	0x3da8e7f5	0.08247367
59	0x3ee217cc	0.4415878
60	0x3c1f2b22	0.0097148735
61	0x3ee55bd7	0.4479663
62	0x3e83390a	0.25629455
63	0x3e80d3be	0.25161546
64	0xbd5bbe0d	-0.053648043
65	0x3b8d3856	0.0043096943
66	0xbdaf9d3a	-0.085749105
67	0x3ee776ec	0.45207918
68	0x3d84f80e	0.06492625
69	0x3f052b02	0.5201875
70	0x3f3bbbd0	0.73333454
71	0x3d746e47	0.05967548
72	0xbd283151	-0.041062657
73	0x3e7339a6	0.2375246
74	0x3ec6a016	0.3879401
75	0x3eb05b55	0.3444468
76	0x3eca7027	0.3953869
77	0x3e4346d9	0.19069995
78	0xbb84a61e	-0.004048123
79	0x3eab56ce	0.33464664

network.12.weight f4 [10, 80]
0	0x3dc72931	0.097246535
1	0x3e6ce0f6	0.23132691
2	0xbe915554	-0.28385413
3	0xbe1fd258	-0.15607584
4	0xbe23722d	-0.15961523
5	0xbed49dd8	-0.41526675
6	0xbedfa44d	-0.4368004
7	0x3e28066c	0.164087
8	0xbe763d03	-0.24046712
9	0xbec40e1e	-0.3829202
10	0x3d35c6a6	0.0443789
11	0x3d829147	0.06375366
12	0x3e41f744	0.1894198
13	0x3dc20d30	0.094751716
14	0x3d877028	0.06613189
15	0x3db21e8f	0.08697235
16	0x3e247ce0	0.16063261
17	0xbd3a79db	-0.045526367
18	0x3c0a0adf	0.008425443
19	0xbe4ac385	-0.19801147
20	0xbceac53f	-0.028658507
21	0x3cbce9ad	0.023060644
22	0x3e3f0f61	0.1865821
23	0x3e38a71d	0.18032499
24	0x3e6b94a2	0.23005918
25	0x3d42a798	0.04752311
26	0xbd7ee6e7	-0.062231924
27	0xbddbfde4	-0.10741785
28	0xbe56103b	-0.20904629
29	0xbe602bcb	-0.21891706
30	0xbe0a6a86	-0.13517198
31	0xbeb0a25d	-0.34498873
32	0x3e38681e	0.18008468
33	0xbd06cb78	-0.032908887
34	0xbe94ba8a	-0.29048568
35	0x3db7407b	0.089478455
36	0xbd2bb35c	-0.041919097
37	0x3d375fcc	0.044769093
38	0xbf554e49	-0.8332258
39	0xbef1d340	-0.47231483
40	0x3e0ce97e	0.13760945
41	0xbe47e097	-0.19519268
42	0xbe66cea5	-0.22539766
43	0xbdfd2a5e	-0.123615965
44	0x3dbb00b8	0.091309965
45	0xbebfaa61	-0.37434676
46	0xbe262be9	-0.16227688
47	0x3e11ad22	0.14226201
48	0xbe7fe145	-0.24988277
49	0xbe5e485d	-0.21707292
50	0x3e50ac5d	0.20378251
51	0xbc8d4c8f	-0.01724842
52	0x3dbb4958	0.091448486
53	0xbd0ea1cd	-0.034822274
54	0xbe91b464	-0.2845794
55	0x3e14a787	0.14517032
56	0xbe22271e	-0.15835235
57	0x3e152ad3	0.14567117
58	0x3cc0f242	0.023553018
59	0xbe051f09	-0.1300012
60	0x3dfd2adf	0.12361693
61	0x3e19f692	0.15035465
62	0xbe53b705	-0.20675285
63	0x3db7c160	0.0897243
64	0xbe9ac722	-0.3023005
65	0xbd59babc	-0.0531566
66	0x3c35aca5	0.011088525
67	0xbd166866	-0.036720656
68	0xbd9bc876	-0.07606594
69	0xbe7445c4	-0.23854738
70	0x3dd74e8a	0.10513027
71	0xbe1c7d8a	-0.15282264
72	0xbe4e5c4b	-0.20152394
73	0x3e0f02ed	0.1396596
74	0xbd1c883f	-0.038215872
75	0xbe856e50	-0.26060724
76	0x3d716885	0.05893757
77	0xbe3835a5	-0.17989214
78	0x3e5e3370	0.2169931
79	0xbe685817	-0.22689854
80	0xbf032b01	-0.51237494
81	0xbe0fe8f0	-0.14053702
82	0xbef8cf14	-0.48595488
83	0xbf065444	-0.5247233
84	0x3e5e9679	0.21737088
85	0x3d80a25b	0.06280967
86	0x3e0c89eb	0.13724487
87	0xbf030d76	-0.51192415
88	0xbe8476e0	-0.25871944
89	0x3dfe8ce4	0.124292165
90	0x3e040e9c	0.12896198
91	0x3db1182e	0.0864719
92	0xbe178bdb	-0.14799444
93	0xbf037b4b	-0.51360005
94	0xbd83549d	-0.06412623
95	0xbe9d7fe3	-0.30761632
96	0x3dbbaf62	0.09164311
97	0xbe4e4d0c	-0.20146579
98	0x3e65aa52	0.22428253
99	0xbdb0170d	-0.085981466
100	0x3d427049	0.047470365
101	0x3e083d45	0.13304622
102	0x3d2137f4	0.03936
103	0xbe9d265d	-0.3069333
104	0xbe7c6146	-0.24646482
105	0x3e32242e	0.17396614
106	0xbd01f738	-0.031729907
107	0x3e4e6fa8	0.20159781
108	0xbde5c259	-0.112187095
109	0x3e0183b5	0.12647898
110	0x3d3b931e	0.0457946
111	0x3e7240ad	0.23657484
112	0xbc8ee826	-0.017444681
113	0xbd98feff	-0.07470512
114	0x3e5b9728	0.2144438
115	0xbdda620d	-0.10663233
116	0xbc5e1b82	-0.013556363
117	0x3cada74f	0.021197943
118	0xbe6bc81d	-0.23025556
119	0xbc0655c4	-0.008199159
120	0xbef3c44c	-0.476107
121	0xbe8cde07	-0.27513143
122	0xbe2a6b9a	-0.16642609
123	0xbe0ae2cf	-0.13563083
124	0x3db73490	0.089455724
125	0xbef312fa	-0.47475415
126	0xbe28ec2f	-0.16496347
127	0xbe9424e9	-0.2893441
128	0x3e5bd0c8	0.21466362
129	0xbeb7a9e0	-0.35871792
130	0x3d35a813	0.04434974
131	0xbc76125c	-0.015019026
132	0x3e4af4f2	0.19820002
133	0x3b9e83b3	0.004837477
134	0xbd8f4e0a	-0.06997307
135	0x3d1ba10d	0.037995387
136	0xbb3e1301	-0.0029003026
137	0x3cb92d0e	0.022604492
138	0xbe2ec609	-0.17067732
139	0xbe90ca26	-0.28279227
140	0x3e3900fd	0.18066783
141	0x3dac41f9	0.08411021
142	0xbecc0f25	-0.39855304
143	0xbdb488d7	-0.08815163
144	0x3d857204	0.065158874
145	0xbe729dda	-0.23693028
146	0xbd92d629	-0.07169754
147	0xbe716d1c	-0.23576778
148	0xbeaaaeaa	-0.33336383
149	0xbebfbfb1	-0.37450936
150	0xbebea13b	-0.37232384
151	0xbee6a569	-0.45048073
152	0x3eaa6caa	0.3328603
153	0xbc93251f	-0.017962037
154	0x3dfcdde4	0.1234701
155	0xbe514abd	-0.20438667
156	0xbe2e2261	-0.17005302
157	0x3e92fe7c	0.2870978
158	0xbcdbc0d8	-0.026825354
159	0xbdbb43d6	-0.09143798
160	0x3e151b46	0.14561185
161	0xbd957a8d	-0.07298765
162	0xbd9629c9	-0.07332189
163	0xbda9b1a1	-0.08285833
164	0x3e04ca0d	0.12967701
165	0xbe5411e2	-0.20709947
166	0x3e40076b	0.1875283
167	0xbe684c03	-0.22685246
168	0x3e227c6d	0.15867777
169	0xbd9a934d	-0.07547627
170	0xbe593d52	-0.21214798
171	0x3e99ea8e	0.30061764
172	0x3cc121ec	0.023575746
173	0x3d9cd28e	0.076573476
174	0xbe9e74ff	-0.30948636
175	0xbc0acf25	-0.008472239
176	0xbd0223ef	-0.03177255
177	0xbea1365d	-0.31486788
178	0xbe8f33ad	-0.27969113
179	0x3cf78543	0.030214911
180	0x3c7bee8e	0.0153767
181	0xbe940043	-0.2890645
182	0xbe86fb75	-0.2636372
183	0xbdda0148	-0.10644776
184	0x3e71edc1	0.23625852
185	0xbd1cb004	-0.0382538
186	0xbd3cc470	-0.046085775
187	0xbecee53c	-0.40409267
188	0xbdfa4502	-0.122201934
189	0x3e776bba	0.24162188
190	0xbe024ae7	-0.12723885
191	0x3d8c1865	0.068405904
192	0xbed59aab	-0.41719565
193	0xbd74e16c	-0.05978529
194	0xbe276fce	-0.16351244
195	0x3e02970f	0.12752937
196	0x3d0d40b8	0.03448555
197	0x3e050f30	0.12994075
198	0x3ca5b5c3	0.020228272
199	0x3e6bfa65	0.23044737
200	0x3e82125e	0.25404638
201	0xbe3b5230	-0.18293071
202	0xbd811020	-0.06301904
203	0xbe7db7f0	-0.24777198
204	0x3d89146d	0.06693349
205	0x3e1fddda	0.15611973
206	0xbdc73554	-0.097269684
207	0x3d83a20a	0.06427391
208	0xbe79d0d9	-0.24396075
209	0x3e2d7176	0.16937813
210	0xbd81c8f8	-0.0633716
211	0xbc2768b8	-0.010217838
212	0xbe848a84	-0.2588693
213	0xbd665838	-0.056236476
214	0xbd842cfe	-0.06453894
215	0x3e722586	0.23647127
216	0xbc36d351	-0.01115878
217	0xbd3e4bea	-0.046459116
218	0xbe733b0c	-0.23752993
219	0xbe375785	-0.1790448
220	0xbd7a6db3	-0.061139774
221	0xbe54ca92	-0.207804
222	0x3e4606ff	0.19338606
223	0xbdab7718	-0.08372325
224	0xbe98f9c7	-0.29878065
225	0x3eae5d27	0.34055445
226	0xbd2602fc	-0.04053019
227	0x3ddc70bf	0.10763692
228	0x3d2ea0c3	0.042633783
229	0xbe8c58c1	-0.27411464
230	0xbd30e8d0	-0.043190777
231	0xbe5b9d8f	-0.21446823
232	0x3efdbd50	0.49558496
233	0x3ca10d8d	0.019659782
234	0x3ccc5d70	0.024946898
235	0xbe483005	-0.19549568
236	0xbcec2e39	-0.028830634
237	0xbcebff27	-0.02880819
238	0xbd202b03	-0.03910352
239	0x3e6da903	0.23209004
240	0xbc7c7ec3	-0.015411082
241	0xbf0017c1	-0.50036246
242	0x3e1dcee6	0.15410957
243	0x3e2b55d0	0.16731954
244	0xbe3296aa	-0.17440286
245	0x3dd1f0c9	0.10251004
246	0xbd2208fc	-0.03955935
247	0x3e47d8c8	0.19516289
248	0x3dd5b99f	0.10435795
249	0x3c868f45	0.016425738
250	0x3a726d7c	0.0009247882
251	0xbdfc31e9	-0.12314207
252	0xbd1b51f0	-0.03791994
253	0x3dd2ca50	0.10292494
254	0x3dc59fd4	0.096496254
255	0xbd8caf9a	-0.06869431

network.12.bias f4 [10]
0	0xbe021451	-0.12703063
1	0xbe5319ab	-0.2061526
2	0xbd9578cf	-0.07298433
3	0x3e4db826	0.20089778
4	0x3dd4dbb9	0.10393471
5	0xbc53642a	-0.012902299
6	0xbda0e131	-0.07855452
7	0xbd4b685d	-0.049660075
8	0xbc8c50d8	-0.017128393
9	0x3c94a5d6	0.018145483
